…
NN Training Process
Using TensorFlow backend.
CNN Model
parsing sina/sinanews.train
parsing sina/sinanews.test
starting to train word vector
Building prefix dict from the default dictionary ...
Loading model from cache C:\Users\ligeo\AppData\Local\Temp\jieba.cache
Loading model cost 0.847 seconds.
Prefix dict has been built successfully.
Model: "sequential_1"
_________________________________________________________________
Layer (type)                 Output Shape              Param #
=================================================================
embedding_1 (Embedding)      (None, 500, 100)          3969400
_________________________________________________________________
conv1d_1 (Conv1D)            (None, 500, 64)           19264
_________________________________________________________________
conv1d_2 (Conv1D)            (None, 500, 32)           6176
_________________________________________________________________
conv1d_3 (Conv1D)            (None, 500, 16)           1552
_________________________________________________________________
flatten_1 (Flatten)          (None, 8000)              0
_________________________________________________________________
dropout_1 (Dropout)          (None, 8000)              0
_________________________________________________________________
dense_1 (Dense)              (None, 180)               1440180
_________________________________________________________________
dropout_2 (Dropout)          (None, 180)               0
_________________________________________________________________
dense_2 (Dense)              (None, 8)                 1448
=================================================================
Total params: 5,438,020
Trainable params: 5,438,020
Non-trainable params: 0
_________________________________________________________________
starting to train
C:\Users\ligeo\AppData\Local\Programs\Python\Python36\lib\site-packages\tensorflow_core\python\framework\indexed_slices.py:424: UserWarning: Converting sparse IndexedSlices to a dense Tensor of unknown shape. This may consume a large amount of memory.
…
RNN Training Process
>python LSTM.py
Using TensorFlow backend.
LSTM!
parsing sina/sinanews.train
parsing sina/sinanews.test
starting to train word vector
Building prefix dict from the default dictionary ...
Loading model from cache C:\Users\ligeo\AppData\Local\Temp\jieba.cache
Loading model cost 0.610 seconds.
Prefix dict has been built successfully.
Model: "sequential_1"
_________________________________________________________________
Layer (type)                 Output Shape              Param #
=================================================================
embedding_1 (Embedding)      (None, 500, 100)          3969400
_________________________________________________________________
bidirectional_1 (Bidirection (None, 100)               60400
_________________________________________________________________
dropout_1 (Dropout)          (None, 100)               0
_________________________________________________________________
dense_1 (Dense)              (None, 8)                 808
_________________________________________________________________
activation_1 (Activation)    (None, 8)                 0
=================================================================
Total params: 4,030,608
Trainable params: 4,030,608
Non-trainable params: 0
_________________________________________________________________
starting to train
C:\Users\ligeo\AppData\Local\Programs\Python\Python36\lib\site-packages\tensorflow_core\python\framework\indexed_slices.py:424: UserWarning: Converting sparse IndexedSlices to a dense Tensor of unknown shape. This may consume a large amount of memory.
…
